eIQ/eIQ_models/air_onnx/model/LeNet-sim.onnx (onnx, 249705 bytes, 10 tensors)

conv1.bias f4 [6]
-0.105868176 -0.01624716 0.037085667 -0.08965307 -0.11420581 0.022991419
00000000: 6ad1 d8bd c418 85bc 24e7 173d 079c b7bd
00000010: bce4 e9bd 8058 bc3c

conv1.weight f4 [6, 3, 5, 5]
-0.060353756 0.043169335 -0.0518089 -0.041308098 -0.0012232065 -0.07359527 -0.07915745 0.025519878
0.0413066 -0.058720056 0.10293372 0.027359024 0.112353876 -0.024318404 0.09455393 -0.003678143
0.020847037 -0.008194312 -0.088723026 -0.016910046 0.055061176 -0.07121139 -0.014283113 -0.038503446
0.049284533 0.02975677 0.10775535 0.07126592 -0.09866705 0.048438087 -0.103410214 -0.095762156
0.0053239986 -0.01473821 0.006412916 -0.02200462 -0.11001457 0.07021275 0.04606317 0.09388621
-0.0063426048 0.10997757 -0.055081993 -0.09614748 0.11061174 -0.1100118 0.09078567 0.01581806
-0.04205846 -0.0075602904 -0.047656782 -0.049401768 -0.01817482 0.07671906 -0.0022691637 -0.10624406
0.0050015375 -0.04082139 0.10483213 -0.053088352 -0.114922486 -0.10881296 -0.110714555 0.013760582
0.041870415 0.072735325 0.10528384 0.11269891 -0.07733323 -0.08856181 -0.07118631 -0.09920114
0.10361874 -0.11327704 0.0015984327 0.087937385 0.043532938 0.09033458 0.042794064 -0.0075995624
0.006201841 -0.03933981 0.035984695 -0.066874206 0.0594808 -0.046943128 -0.024854101 -0.07813455
0.070135325 0.09961888 0.032367498 0.014723301 0.11212018 -0.111146666 -0.10565081 0.028767467
-0.10235101 -0.07426593 -0.003791958 -0.036275394 0.010571867 -0.08810125 -0.057007197 0.10105921
-0.0036243275 -0.10053719 -0.108138055 -0.049573228 -0.08256336 0.022636145 0.00532382 -0.0140168965
0.087818995 -0.08814429 0.049823567 -0.09431888 0.094535306 -0.11188018 -0.004490353 0.088848755
0.090612665 -0.021726795 0.07827759 0.045945138 -0.041703634 -0.10689896 -0.06614071 -0.09185471
-0.0202211 0.049193412 0.0018419251 -0.090402946 -0.07531941 0.104793906 0.029914677 0.089634985
0.101158336 0.016642421 -0.100016 0.096058816 -0.07234806 -0.026377432 0.0069042966 -0.07047267
0.07018444 -0.074438244 -0.06359786 0.020822495 -0.02512072 0.08765186 -0.107131265 -0.052680194
-0.002468355 -0.07302816 0.03375864 -0.037406065 0.03368084 -0.023393556 -0.08336174 0.1108899
0.011244804 -0.049618587 -0.02003932 -0.029776715 0.0070929527 -0.085286416 -0.11494062 -0.096135974
-0.054247335 0.10552934 0.013146445 0.09118308 -0.0066664964 -0.013425879 0.09889205 0.06036912
0.050351575 0.01827319 -0.10233886 -0.057260748 0.01230219 0.0053331926 -0.066208854 0.07178177
-0.0905625 0.06489758 -0.07316272 -0.053001523 0.11002955 -0.013267726 -0.11288948 0.023594067
0.08633229 0.11313298 -0.100598484 -0.034116887 0.033178553 0.043695375 0.057337046 0.0031253397
0.074576646 0.055147722 -0.04119485 0.09817085 -0.04189741 0.07565476 -0.06820883 0.10597971
0.064963624 -0.013084553 0.05689448 0.061981082 0.011187613 0.048149064 0.08895002 0.10543181
0.023086607 0.04596415 -0.0034971237 -0.022219367 -0.025047064 0.111610785 -0.02445598 -0.09365887
-0.024207547 -0.018267721 -0.07366598 -0.033633173 0.0028228387 -0.024758302 0.08072105 -0.078810096
-0.10625089 -0.0559098 0.014047444 -0.041934438 0.057255104 -0.014236279 0.057826117 -0.08982851
0.0360768 0.009905949 0.057375446 -0.08057338 0.004812129 -0.059426535 0.068498 0.08495748
0.069143385 -0.06784159 0.04813707 -0.09884411 0.06882016 0.091558084 -0.021522164 -0.029306017
00000000: 8035 77bd 54d2 303d 9235 54bd ae32 29bd
00000010: 0054 a0ba 1eb9 96bd 4d1d a2bd 100f d13c
00000020: 1c31 293d 7184 70bd eace d23d 0820 e03c
00000030: ca19 e63d 6437 c7bc 7ea5 c13d 000d 71bb
00000040: 68c7 aa3c 7041 06bc 6bb4 b5bd f086 8abc
00000050: d487 613d 47d7 91bd b803 6abc cab5 1dbd
00000060: 94de 493d 78c4 f33c d6ae dc3d def3 913d
00000070: f311 cabd 0467 463d bcc8 d3bd f31e c4bd
00000080: f074 ae3b 8878 71bc 7023 d23b 0843 b4bc
00000090: 524f e1bd b4cb 8f3d bcac 3c3d 6a47 c03d
000000a0: a0d5 cfbb ec3b e13d a89d 61bd f8e8 c4bd
000000b0: 6888 e23d de4d e1bd d6ed b93d e094 813c
000000c0: 7e45 2cbd 50bc f7bb c233 43bd 8259 4abd
000000d0: 5ce3 94bc e21e 9d3d 40b6 14bb 7c96 d9bd
000000e0: f0e3 a33b 5434 27bd 3ab2 d63d 2c73 59bd
000000f0: 7b5c ebbd 54d9 debd 50be e2bd 1074 613c
00000100: 5080 2b3d 42f6 943d 0e9f d73d b0ce e63d
00000110: e260 9ebd e55f b5bd 21ca 91bd f829 cbbd
00000120: 1036 d43d cbfd e7bd 8082 d13a 8418 b43d
00000130: 984f 323d 5601 b93d d448 2f3d c005 f9bb
00000140: d038 cb3b c822 21bd b064 133d 58f5 88bd
00000150: 24a2 733d 7047 40bd d49a cbbc 0205 a0bd
00000160: 1ca3 8f3d fc04 cc3d c893 043d 003a 713c
00000170: 449f e53d dda0 e3bd 745f d8bd c0a9 eb3c
00000180: 689d d1bd bc18 98bd 8082 78bb 8295 14bd
00000190: a035 2d3c 6e6e b4bd 6180 69bd 22f8 ce3d
000001a0: 2086 6dbb 71e6 cdbd 7c77 ddbd 4c0d 4bbd
000001b0: fb16 a9bd 706f b93c 7073 ae3b 20a7 65bc
000001c0: 72da b33d fe84 b4bd cc13 4c3d 422a c1bd
000001d0: ba9b c13d 7021 e5bd d023 93bb 56f6 b53d
000001e0: 2293 b93d 64fc b1bc 0050 a03d f830 3c3d
000001f0: 6ed1 2abd d8ed dabd c874 87bd 521e bcbd
00000200: b8a6 a5bc 087f 493d c06c f13a 2e25 b9bd
00000210: 1041 9abd 309e d63d a00f f53c 8c92 b73d
00000220: 1a2c cf3d b055 883c 30d5 ccbd 7cba c43d
00000230: 382b 94bd 7c15 d8bc 703d e23b fa53 90bd
00000240: dcbc 8f3d 1473 98bd 983f 82bd f093 aa3c
00000250: f8c9 cdbc d282 b33d a367 dbbd 30c7 57bd
00000260: 20c4 21bb ca8f 95bd 8046 0a3d 1a37 19bd
00000270: ecf4 093d d8a3 bfbc 8fb9 aabd 3e1a e33d
00000280: 203c 383c dc3c 4bbd 8029 a4bc 4cee f3bc
00000290: 006c e83b a5aa aebd fd65 ebbd f0e2 c4bd
000002a0: 7432 5ebd c41f d83d 3064 573c 32be ba3d
000002b0: a072 dabb 38f8 5bbc ea87 ca3d 9c45 773d
000002c0: 743d 4e3d a8b1 953c 0997 d1bd 3f8a 6abd
000002d0: 208f 493c 10c2 ae3b 8298 87bd 5202 933d
000002e0: d578 b9bd 06e9 843d 56d6 95bd 2018 59bd
000002f0: 2c57 e13d e060 59bc 9a32 e7bd 5848 c13c
00000300: fcce b03d 44b2 e73d 9406 cebd 26be 0bbd
00000310: 3ce6 073d ecf9 323d 40da 6a3d 80d2 4c3b
00000320: a4bb 983d 94e2 613d eebb 28bd cc0d c93d
00000330: 9e9c 2bbd e2f0 9a3d 12b1 8bbd e40b d93d
00000340: a60b 853d 9860 56bc 300a 693d e0df 7d3d
00000350: 404c 373c f437 453d 6e2b b63d a2ec d73d
00000360: 2020 bd3c e844 3c3d 0030 65bb 6405 b6bc
00000370: 802f cdbc 3294 e43d e857 c8bc 39d0 bfbd
00000380: e84e c6bc 30a6 95bc 30de 96bd f0c2 09bd
00000390: 60ff 383b ecd1 cabc 1451 a53d 3067 a1bd
000003a0: 119a d9bd ad01 65bd 4027 663c 72c3 2bbd
000003b0: 5484 6a3d 483f 69bc 14db 6c3d 03f8 b7bd
000003c0: 44c5 133d 904c 223c 8402 6b3d a803 a5bd
000003d0: 10af 9d3b 3d69 73bd ae48 8c3d 30fe ad3d
000003e0: 0c9b 8d3d 88f0 8abd 602b 453d c86e cabd
000003f0: 96f1 8c3d ce82 bb3d 404f b0bc 2c13 f0bc

conv2.bias f4 [16]
0.07702209 0.017759897 -0.055263653 0.0010272786 -0.06146268 -0.03968034 -0.05498571 -0.038856845
-0.078231834 0.02612777 -0.01263617 0.061691955 -0.064339355 0.08037624 -0.013808541 0.07363622
00000000: c2bd 9d3d 347d 913c 245c 62bd c0a5 863a
00000010: 4bc0 7bbd da87 22bd b238 61bd 5b28 1fbd
00000020: 0338 a0bd e809 d63c f007 4fbc b4b0 7c3d
00000030: 5ac4 83bd 4c9c a43d 383d 62bc 96ce 963d

conv2.weight f4 [16, 6, 5, 5]
0.06477153 -0.013175815 -0.034457378 -0.074440725 -0.034522835 0.058092207 0.06411898 -0.04655537
-0.07222055 -0.0022379383 0.051156387 0.06153962 -0.07968964 0.029901095 -0.0054623634 0.04848233
0.009536527 0.044960827 -0.06273213 -0.020373035 -0.06267723 0.01240585 0.068034366 -0.030812085
-0.07784702 0.07109216 0.013160899 0.007548116 -0.06841187 -0.048974555 -0.029093292 0.0065279156
-0.020902045 0.071971595 -0.041910358 0.005057879 -0.03738563 0.0099695325 0.05092238 -0.053101875
-0.08019194 -0.02041332 -0.08056127 0.02986779 0.01010292 -0.074583575 -0.04979146 -0.03033514
0.07538131 -0.05061672 0.073152125 -0.024626158 -0.06143669 -0.0029944032 -0.061253577 0.056455523
-0.011651754 0.030589417 -0.054762967 -0.010537833 0.08085653 -0.076358534 -0.007222168 -0.07714573
0.06303938 0.010009095 -0.004427634 -0.0041459873 0.0016723424 -0.050556183 -0.06184723 0.032199576
0.017628819 0.00025571883 0.050934047 -0.03920319 -0.04731546 0.022468112 -0.057070293 0.07408625
-0.08023206 0.04870352 0.02473908 0.0788611 -0.04180839 -0.06473498 -0.028983656 -0.06390117
-0.07575819 0.061739057 -0.021640498 -0.04054836 0.033411786 -0.015138052 -0.016602248 0.036306188
-0.038793102 0.06882064 -0.06986417 -0.040094055 -0.053930286 0.013167217 0.0154180825 -0.07293923
-0.008204758 -0.06852603 -0.05355668 0.014720343 0.07138778 -0.062551275 -0.035064206 0.07152739
-0.0076818317 0.007714197 0.056530744 0.06795943 0.029862963 -0.015444867 -0.009137802 -0.06512626
0.04108557 0.02647192 -0.068150885 0.033004865 0.07077415 0.031715535 0.04587786 -0.03933481
0.00016827881 -0.01864735 -0.08034706 0.079404846 0.068302915 -0.024109501 0.006410718 0.06968565
-0.06739217 -0.049589474 -0.0026488379 -0.00035125762 0.040831998 -0.051126942 -0.008997448 -0.05222676
-0.07645709 0.015376501 -0.06644883 -0.049193848 -0.04842715 0.012393497 -0.020983417 0.05843769
-0.03952697 -0.009636387 -0.03260784 0.061956137 -0.028592177 0.060397193 -0.032503817 -0.07575967
-0.07217677 0.07454452 -0.07708645 0.06559554 0.04455121 0.043810964 -0.039078455 -0.05380155
-0.004209362 -0.070187375 -0.057456426 0.038317196 -0.064741194 -0.040258553 -0.053707905 -0.015858471
0.008441232 -0.0005023405 0.06418398 0.0274221 -0.039639603 0.059462786 -0.038510647 0.006705098
0.04084091 0.05553481 -0.03480086 -0.064061165 -0.007437758 0.057787195 -0.036294468 -0.0014334098
0.047274455 -0.051540464 0.02097682 -0.038869683 -0.034914408 -0.051030397 -0.063983254 0.014858156
0.07728006 0.00481952 -0.031921837 -0.046292294 0.07358606 0.015844174 -0.07664903 0.015492573
0.022562094 0.0018652529 0.07903853 0.025781758 -0.06094243 -0.067816556 -0.031355012 0.021219634
-0.04377778 0.029822141 0.02843827 0.043260098 -0.06439969 0.01545535 0.03307488 -0.01456888
-0.06610972 -0.04432097 -0.061025426 0.0012867153 0.0775353 0.017494567 -0.05058474 0.06859945
-0.027200148 -0.072221115 -0.047896944 0.057510242 -0.058950365 -0.07598287 -0.07560901 -0.008050017
0.017148972 -0.026521116 0.023091488 0.020059466 0.07556909 -0.07410589 0.004911959 -0.009186976
0.074769944 0.0026230216 0.018345118 0.012132801 0.011626124 0.02288109 0.033964895 -0.0053480044
00000000: f0a6 843d 60df 57bc 2e23 0dbd 6174 98bd
00000010: d167 0dbd 18f2 6d3d d050 833d d8b0 3ebd
00000020: 5ee8 93bd 60aa 12bb 5c89 513d f810 7c3d
00000030: 5234 a3bd 24f3 f43c a0fd b2bb 6895 463d
00000040: 183f 1c3c d828 383d b479 80bd 5ae5 a6bc
00000050: eb5c 80bd e841 4b3c 9a55 8b3d a069 fcbc
00000060: 426e 9fbd c498 913d d0a0 573c 3056 f73b
00000070: 861b 8cbd 8b99 48bd 0e55 eebc 20e8 d53b
00000080: c43a abbc d865 933d 32aa 2bbd 90bc a53b
00000090: ad21 19bd 4057 233c fc93 503d 5a81 59bd
000000a0: ac3b a4bd d639 a7bc 4ffd a4bd 4cad f43c
000000b0: b886 253c 46bf 98bd 21f2 4bbd 6681 f8bc
000000c0: 8461 9a3d 7a53 4fbd c8d0 953d ccbc c9bc
000000d0: 0aa5 7bbd c03d 44bb 08e5 7abd e83d 673d
000000e0: 00e7 3ebc a896 fa3c 224f 60bd e0a6 2cbc
000000f0: 1c98 a53d dd61 9cbd f0a7 ecbb 95fe 9dbd
00000100: ca1a 813d 30fd 233c b015 91bb 10db 87bb
00000110: 8032 db3a 0014 4fbd 8553 7dbd b4e3 033d
00000120: 506a 903c 0012 8639 38a0 503d 8693 20bd
00000130: dbcd 41bd 0c0f b83c 8ac2 69bd 88ba 973d
00000140: b550 a4bd 587d 473d 9ca9 ca3c ee81 a13d
00000150: 463f 2bbd c693 84bd 226f edbc 9ede 82bd
00000160: 1c27 9bbd 18e2 7c3d 6a47 b1bc 0a16 26bd
00000170: ccda 083d 9805 78bc 7001 88bc ccb5 143d
00000180: 84e5 1ebd d6f1 8c3d f214 8fbd aa39 24bd
00000190: 01e6 5cbd 50bb 573c 209c 7c3c 2a61 95bd
000001a0: 406d 06bc 6057 8cbd 405e 5bbd 982d 713c
000001b0: c233 923d e21a 80bd 7c9f 0fbd f47c 923d
000001c0: e0b7 fbbb 60c7 fc3b c88c 673d 502e 8b3d
000001d0: 2ca3 f43c 780c 7dbc b8b6 15bc eb60 85bd
000001e0: 5849 283d a4db d83c b192 8bbd 1c30 073d
000001f0: 0af2 903d 26e8 013d 6cea 3b3d 8a1d 21bd
00000200: 0074 3039 54c2 98bc 008d a4bd 029f a23d
00000210: 66e2 8b3d 4a81 c5bc 0011 d23b 5ab7 8e3d
00000220: e804 8abd 551e 4bbd 2098 2dbb 0029 b8b9
00000230: 743f 273d 7c6a 51bd 086a 13bc baeb 55bd
00000240: 8995 9cbd b8ed 7b3c 5316 88bd 7d7f 49bd
00000250: 8c5b 46bd 180e 4b3c 6ae5 abbc 5c5c 6f3d
00000260: 08e7 21bd f0e1 1dbc cc8f 05bd b8c5 7d3d
00000270: 243a eabc 0c63 773d b922 05bd e327 9bbd
00000280: 6ad1 93bd ccaa 983d 80df 9dbd f456 863d
00000290: 547b 363d 2073 333d bb10 20bd 045f 5cbd
000002a0: b0ee 89bb 66be 8fbd 6e57 6bbd 7ef2 1c3d
000002b0: 0897 84bd 27e6 24bd d2fc 5bbd a0e9 81bc
000002c0: 184d 0a3c 80af 03ba e472 833d 50a4 e03c
000002d0: 235d 22bd 408f 733d 57bd 1dbd 70b6 db3b
000002e0: cc48 273d 7878 633d 598b 0ebd 8032 83bd
000002f0: 70b8 f3bb 44b2 6c3d 82a9 14bd 40e1 bbba
00000300: dca2 413d 181c 53bd 94d7 ab3c d135 1fbd
00000310: 6902 0fbd 4005 51bd a709 83bd a06f 733c
00000320: 0245 9e3d 10ed 9d3b 79c0 02bd fd9c 3dbd
00000330: 4ab4 963d a4cb 813c 2bfa 9cbd 90d4 7d3c
00000340: 24d4 b83c 807b f43a f4de a13d 4434 d33c
00000350: c59e 79bd 68e3 8abd 1d6e 00bd ccd4 ad3c
00000360: 5450 33bd 904d f43c 60f7 e83c 8031 313d
00000370: fce3 83bd 7038 7d3c 8679 073d 50b2 6ebc
00000380: 8864 87bd e889 35bd ccf5 79bd 00a7 a83a
00000390: d4ca 9e3d c450 8f3c f231 4fbd de7d 8c3d
000003a0: d8d2 debc aae8 93bd 962f 44bd dc8f 6b3d
000003b0: f075 71bd e89c 9bbd e6d8 9abd 38e4 03bc
000003c0: 007c 8c3c d042 d9bc 5c2a bd3c c053 a43c
000003d0: f8c3 9a3d d4c4 97bd 80f4 a03b f884 16bc
000003e0: fc20 993d 00e7 2b3b 8048 963c a8c8 463c
000003f0: 807b 3e3c 2071 bb3c c61e 0b3d 503e afbb

fc1.bias f4 [120]
-0.045460638 -0.036066335 0.0015094765 0.029450241 -0.03109398 0.0439027 0.008721583 -0.027515937
-0.008718543 -0.022230346 0.007220082 -0.008134417 -0.0016134754 -0.037835162 -0.0027309284 -0.04649145
-0.03218045 -0.02946273 0.028972883 -0.03898459 0.005877394 0.003882151 0.029563058 -0.024530822
-0.002974905 -0.04047174 -0.0016838908 -0.0053264312 -0.042310983 0.02253187 -0.034687232 -0.023354232
-0.046987522 0.02345511 0.031851728 0.01031632 -0.0082341805 -0.01874889 0.010459799 0.036429744
-0.04669947 0.010509081 -0.0472445 -0.00900048 -0.0470568 0.0063403323 0.03588106 -0.028050829
0.029734183 0.011063736 -0.01570974 0.040126484 0.034358304 0.012762766 -0.028910875 -0.029318644
-0.005638428 0.046629723 -0.022858841 -0.027225142 -0.0023298934 -0.03991271 0.006518323 0.010695029
0.038819533 -0.0029088669 -0.01726649 0.022595625 -0.033449166 0.02930909 -0.033227563 -0.003015101
-0.046871733 -0.031266905 -0.015848719 -0.009797312 0.046152193 0.01195097 0.018291045 -0.021249568
-0.041435964 -0.0002328232 -0.04777742 -0.049045175 -0.042712815 0.014999632 -0.035555106 0.01407906
0.04650827 0.038714055 0.0303617 0.019519482 -0.0070030615 -0.009275865 -0.024981761 0.04169525
0.014110576 -0.040478 0.04150972 -0.033731863 -0.04116121 -0.0024321154 0.011529546 -0.008044828
0.044465754 -0.024392206 0.019101229 0.020575348 -0.0180173 0.034498576 0.036647383 -0.032791562
0.014390122 0.004233122 -0.038104415 0.016977105 -0.0027583838 -0.004647799 0.032865558 -0.049975585
00000000: ef34 3abd 4bba 13bd a0d9 c53a a241 f13c
00000010: cdb8 febc 51d3 333d f8e4 0e3c 1a69 e1bc
00000020: 38d8 0ebc 6a1c b6bc 7096 ec3b 3846 05bc
00000030: 407b d3ba 0bf9 1abd 60f9 32bb d26d 3ebd
00000040: a6cf 03bd d35b f1bc 8a58 ed3c 4eae 1fbd
00000050: 2897 c03b b06b 7e3b 3a2e f23c ddf4 c8bc
00000060: a0f6 42bb b2c5 25bd 00b6 dcba 5889 aebb
00000070: 484e 2dbd c294 b83c 3314 0ebd 6051 bfbc
00000080: fd75 40bd ee24 c03c f576 023d c805 293c
00000090: a8e8 06bc 4697 99bc 945f 2b3c 5b37 153d
000000a0: f247 3fbd 482e 2c3c 7383 41bd c076 13bc
000000b0: a2be 40bd 90c2 cf3b 05f8 123d daca e5bc
000000c0: 1a95 f33c ac44 353c b6b1 80bc ab5b 243d
000000d0: 4bbb 0c3d ec1a 513c 80d6 ecbc a72d f0bc
000000e0: 90c2 b8bb cffe 3e3d 7742 bbbc 4307 dfbc
000000f0: 20b1 18bb 837b 23bd a897 d53b 343a 2f3c
00000100: 3b01 1f3d b0a2 3ebb 7472 8dbc 761a b93c
00000110: fe01 09bd 9e19 f03c a019 08bd 0099 45bb
00000120: 93fc 3fbd ba11 00bd 2cd5 81bc e884 20bc
00000130: 150a 3d3d 00ce 433c 1ad7 953c 9313 aebc
00000140: c2b8 29bd 0022 74b9 42b2 43bd 98e3 48bd
00000150: a2f3 2ebd 04c1 753c 3ba2 11bd dcab 663c
00000160: 757f 3e3d a192 1e3d 1ab9 f83c 52e7 9f3c
00000170: f079 e5bb ccf9 17bc 8da6 ccbc a3c8 2a3d
00000180: 0c30 673c 42cc 25bd 1906 2a3d 6c2a 0abd
00000190: a898 28bd 2064 1fbb 6ce6 3c3c 74ce 03bc
000001a0: b921 363d 2ad2 c7bc 2e7a 9c3c a28d a83c
000001b0: 0499 93bc 614e 0d3d 911b 163d 7250 06bd
000001c0: 8cc4 6b3c 00b6 8a3b 6013 1cbd 9213 8b3c
000001d0: 00c6 34bb 904c 98bb 099e 063d 33b3 4cbd

fc1.weight f4 [120, 400]
-0.014788944 -0.013531797 -0.04432871 0.037045423 0.010210406 -0.010127146 0.028759386 -0.03282801
0.018031422 -0.001397945 2.1457672e-05 0.022293475 -0.027901769 -0.015398134 -0.03753971 0.012898359
-0.01695647 -0.031860985 0.0077639446 0.01198668 -0.035991084 0.025787566 -0.009975143 -0.004028894
-0.038799025 -0.02587598 0.049781393 0.01087584 0.030490343 -0.0022483394 0.024047773 0.040417094
0.006336622 0.034015168 -0.0336047 0.025208574 0.03792205 0.021971289 0.01796643 -0.033552133
-0.03549087 -0.009392668 -0.029466068 0.027939055 -0.035668503 0.013255078 0.016843472 0.022647087
-0.013974972 -0.023012264 0.039078023 0.041287515 0.02455585 -0.026828432 -0.018563636 -0.035040636
-0.025579805 -0.047362734 0.043536272 -0.043427136 0.013824675 -0.014581431 -0.004601896 -0.01706753
0.01799855 -0.03529339 -0.004257936 0.026059892 -0.010298204 -0.02516805 -0.02672245 -0.043521125
-0.03546334 0.012977127 -0.0053583607 -0.028180404 -0.037455052 1.4025718e-05 0.034590345 0.012249507
-0.004147906 -0.032390438 0.03217349 -0.020963842 0.021430288 -0.02306199 0.027182277 -0.023694802
-0.016803354 0.022653047 0.044129197 -0.03100112 -0.044882476 -0.005972404 0.01793534 0.028687876
0.04176343 -0.015171766 0.040547248 -0.029810846 0.03601614 0.030433062 -0.002143193 0.003949493
-0.04382467 -0.019926608 -0.044897582 -0.010979116 -0.004398238 0.048313465 0.044429366 0.006636113
-0.043290313 -0.021887172 -0.04934555 0.0099522695 -0.0056387074 0.0075821355 0.043237183 0.018547226
-0.042783767 -0.021246571 -0.01432981 -0.044204544 0.0025387593 0.0015288591 -0.034606755 0.026343767
-0.03796987 -0.044234496 0.030042578 0.031608906 -0.009822272 -0.016112037 -0.04448829 0.031730536
0.016435307 -0.009071201 -0.048257243 -0.04975688 -0.02008291 -0.0015684254 0.041532967 0.042057093
-0.02765659 -0.009206284 0.038311202 0.032339003 -0.027855987 0.026187066 -0.029000295 -0.028758122
0.04561342 -0.04804042 0.042142894 0.03692251 -0.02001819 0.008697737 -0.0057290196 -0.039831698
-0.031271566 -0.012530595 0.019974235 -0.04128915 -0.010929864 0.04635253 0.020488162 -0.041295033
0.008998334 0.03868227 -0.037176274 -0.03165867 -0.016086299 0.032460507 -0.011719771 0.03542165
-0.0184699 0.011249132 -0.036748182 -0.010268908 0.006775599 -0.03284151 -0.03373076 -0.027517391
0.046290573 0.0003138557 -0.019593054 0.047156338 -0.0027786605 -0.046298344 0.024353262 -0.039713807
0.00489242 -0.041517973 -0.04679513 0.004943151 -0.029650545 -0.0044285655 -0.014793087 0.01675577
0.020590093 0.012718681 -0.024625434 -0.035059053 -0.049813487 0.047822807 0.004880421 0.019783702
-0.044387545 -0.010128181 -0.023586292 0.0053801015 0.034229647 0.006786663 -0.024193669 -0.047032602
0.028408792 -0.03764558 0.03571668 0.0020770133 -0.0062851496 -0.035643958 0.041043397 0.041994642
-0.027647931 0.046303783 0.029035095 -0.02769624 -0.041089356 0.02343629 -0.004635554 0.004906941
0.04671224 -0.027047975 -0.012448885 0.0012531094 0.0072679333 -0.037046112 -0.024998277 -0.0199737
-0.032594442 0.036100913 0.033464704 -0.025525946 -0.009657007 -0.037430953 -0.023419196 0.0049184263
0.028580513 0.0035878941 -0.03139924 -0.020491887 0.042940352 0.014499668 -0.009214658 -0.030253077
00000000: 544d 72bc 78b4 5dbc 0592 35bd f1bc 173d
00000010: 8c49 273c 54ec 25bc ce98 eb3c aa76 06bd
00000020: a2b6 933c 403b b7ba 0000 b437 cea0 b63c
00000030: 4092 e4bc 7448 7cbc 3dc3 19bd a453 533c
00000040: 4ce8 8abc aa80 02bd b068 fe3b c863 443c
00000050: 636b 13bd 7240 d33c c86e 23bc d004 84bb
00000060: baeb 1ebd ddf9 d3bc 93e7 4b3d 9430 323c
00000070: e2c6 f93c e058 13bb d6ff c43c 658c 253d
00000080: 70a3 cf3b 7d53 0b3d 15a5 09bd 3682 ce3c
00000090: 2754 1b3d 22fd b33c 562e 933c f66d 09bd
000000a0: e05e 11bd b4e3 19bc d362 f1bc 72e0 e43c
000000b0: 2319 12bd d42b 593c 52fb 893c 6286 b93c
000000c0: 48f7 64bc 3784 bcbc 4710 203d 191d 293d
000000d0: 5a29 c93c 4dc7 dbbc c412 98bc c586 0fbd
000000e0: bd8c d1bc 6dff 41bd 1753 323d a7e0 31bd
000000f0: e480 623c f4e6 6ebc 80cb 96bb 34d1 8bbc
00000100: b271 933c cd8f 10bd 2886 8bbb 8e7b d53c
00000110: ccb9 28bc 3a2d cebc 0ae9 dabc 3543 32bd
00000120: 0242 11bd 049e 543c 3095 afbb 97da e6bc
00000130: 786a 19bd 0050 6b37 9bae 0d3d 28b2 483c
00000140: 28eb 87bb d6ab 04bd 59c8 033d 5dbc abbc
00000150: 928e af3c 80ec bcbc 5ead de3c 9a1b c2bc
00000160: 30a7 89bc e292 b93c d1c0 343d 10f6 fdbc
00000170: b0d6 37bd 28b4 c3bb 22ed 923c d602 eb3c
00000180: 2110 2b3d 0093 78bc df14 263d e035 f4bc
00000190: a985 133d c24e f93c d074 0cbb c06a 813b
000001a0: 7f81 33bd 203d a3bc 87e6 37bd c0e1 33bc
000001b0: 181f 90bb 57e4 453d 91fb 353d c073 d93b
000001c0: 2f51 31bd ba4c b3bc 8f1e 4abd d80e 233c
000001d0: e8c4 b8bb 9073 f83b 7919 313d 5af0 973c
000001e0: 083e 2fbd 4a0d aebc 94c7 6abc d30f 35bd
000001f0: 5061 263b 0064 c83a d0bf 0dbd e2ce d73c
00000200: 4b86 1bbd 3b2f 35bd da1b f63c 5778 013d
00000210: 98ed 20bc 64fd 83bc 5a39 36bd e1f7 013d
00000220: 56a3 863c 609f 14bc 63a9 45bd dfcd 4bbd
00000230: ea84 a4bc a093 cdba 791e 2a3d 0f44 2c3d
00000240: 1390 e2bc f4d5 16bc 35ec 1c3d e775 043d
00000250: 3d32 e4bc 4286 d63c 0792 edbc 2796 ebbc
00000260: 23d5 3a3d 08c6 44bd 079e 2c3d 0f3c 173d
00000270: 30fd a3bc f480 0e3c 80ba bbbb 9026 23bd
00000280: 9d16 00bd 204d 4dbc 02a1 a33c d01e 29bd
00000290: 2c13 33bc 27dc 3d3d cad6 a73c fb24 29bd
000002a0: c06d 133c 4d71 1e3d 2646 18bd 86ac 01bd
000002b0: 6ac7 83bc 4ff5 043d 4804 40bc 4b16 113d
000002c0: 304e 97bc 484e 383c 4385 16bd ec3e 28bc
000002d0: d805 de3b d284 06bd 4429 0abd 276c e1bc
000002e0: 2f9b 3d3d 008d a439 9d81 a0bc 0127 413d
000002f0: 301a 36bb 55a3 3dbd 7e80 c73c f2aa 22bd
00000300: 9850 a03b c00e 2abd 40ac 3fbd 28fa a13b
00000310: b3e5 f2bc 801d 91bb b45e 72bc 6643 893c
00000320: 8eac a83c 0462 503c 47bb c9bc 159a 0fbd
00000330: 3a09 4cbd d9e1 433d f0eb 9f3b 6e11 a23c
00000340: b7cf 35bd acf0 25bc 0a38 c1bc 904b b03b
00000350: 6334 0c3d a862 de3b cd31 c6bc 42a5 40bd
00000360: 8eb9 e83c 4032 1abd a74b 123d 801e 083b
00000370: a8f3 cdbb 66ff 11bd 1f1d 283d 9302 2c3d
00000380: ea7d e2bc 09a9 3d3d 02db ed3c 3ae3 e2bc
00000390: 504d 28bd 76fd bf3c d8e5 97bb 68ca a03b
000003a0: 5555 3f3d b793 ddbc 68f6 4bbc 603f a43a
000003b0: d827 ee3b aabd 17bd 30c9 ccbc e39f a3bc
000003c0: c081 05bd 8dde 133d 4912 093d ca1b d1bc
000003d0: 6c38 1ebc 3351 19bd 9dd9 bfbc c02a a13b
000003e0: ae21 ea3c e022 6b3b 7d9c 00bd 9ade a7bc
000003f0: 39e2 2f3d 0490 6d3c 14f9 16bc 4dd5 f7bc

fc2.bias f4 [84]
0.02827616 -0.08140681 -0.05656498 0.0057592466 -0.0043387413 0.033111863 -0.006964475 -0.0020167753
-0.035536934 -0.05028937 -0.029697202 -0.048877526 -0.060137335 -0.029664282 -0.07703287 0.026635095
-0.03740951 0.07434209 0.06916995 -0.031346876 -0.09102826 -0.038336188 0.036331043 0.024864182
0.029490136 0.023694575 0.014399774 -0.06555936 -0.02957346 0.08355388 0.04419014 -0.0364272
-0.030749105 0.03454739 0.01980868 -0.06656178 0.04665321 -0.01661668 -0.07050656 -0.06347841
0.05963461 0.020201541 -0.047792915 -0.038724143 0.05077815 0.02554705 -0.05946271 0.05285427
0.05417946 -0.0034025684 -0.006589256 0.07225068 0.050306737 -0.035832614 -0.06706758 -0.016076759
0.052949548 -0.07688458 0.08886436 -0.064845026 -0.07524719 -0.08469727 -0.048086267 0.06551206
-0.012739196 0.085586876 -0.022486672 0.007303886 -0.008991204 0.0017280355 0.06213066 -0.053597167
0.037877917 -0.08769927 0.058518887 -0.025979549 -0.042698063 0.005830206 -0.06969598 0.056470975
-0.04794102 0.015920043 0.08496541 -0.008068733
00000000: 68a3 e73c 9db8 a6bd aeb0 67bd 10b8 bc3b
00000010: 002c 8ebb 4ea0 073d 4036 e4bb e02b 04bb
00000020: 2d8f 11bd 3afc 4dbd 8c47 f3bc cd33 48bd
00000030: 9152 76bd 8202 f3bc 69c3 9dbd d831 da3c
00000040: b73a 19bd aa40 983d faa8 8d3d 9565 00bd
00000050: 066d babd 6806 1dbd dccf 143d f8af cb3c
00000060: 4c95 f13c 201b c23c 08ed 6b3c fc43 86bd
00000070: 0a44 f2bc 4c1e ab3d b800 353d b034 15bd
00000080: 8ce5 fbbc 9081 0d3d d045 a23c 8b51 88bd
00000090: 7017 3f3d b41f 88bc be65 90bd f800 82bd
000000a0: 6c43 743d b47d a53c 81c2 43bd 359d 1ebd
000000b0: c0fc 4f3d 0c48 d13c 2c8f 73bd b87d 583d
000000c0: 48eb 5d3d a0fd 5ebb b0ea d7bb 2af8 933d
000000d0: 700e 4e3d 38c5 12bd ba5a 89bd 68b3 83bc
000000e0: a0e1 583d aa75 9dbd 84fe b53d 78cd 84bd
000000f0: 331b 9abd c375 adbd 1bf6 44bd 302b 863d
00000100: 10b8 50bc 2c48 af3d f835 b8bc 7055 ef3b
00000110: d84f 13bc 407f e23a b87c 7e3d b488 5bbd
00000120: e025 1b3d ad9b b3bd 80b1 6f3d 10d3 d4bc
00000130: 2ae4 2ebd 500b bf3b c4bc 8ebd 1c4e 673d
00000140: ce5d 44bd c06a 823c 5802 ae3d b832 04bc

fc2.weight f4 [84, 120]
0.034645155 -0.01692921 0.05158998 -0.07145053 0.032114275 -0.015854008 0.053778112 0.067365006
0.017785586 -0.036951996 0.048567474 -0.013233319 0.04514289 0.010060012 -0.024822198 0.08317065
0.058030546 0.05043444 -0.026704773 -0.00865902 -0.057043627 0.081943616 0.058916494 0.041452497
-0.03431998 0.088174954 -0.049848095 -0.034439217 -0.07807368 -0.057449818 -0.03628497 0.033120133
0.045378044 0.04663831 0.06747633 -0.034804653 0.009879075 -0.053372502 0.04857047 -0.06992912
-0.004844576 0.019366816 0.06575169 -0.04720895 0.06657186 0.058787555 0.06602749 0.08023375
-0.014509797 0.075775385 -0.07568924 0.08550924 -0.048611064 -0.01135084 0.08036277 -0.06829262
0.058491513 -0.0805241 -0.05661098 -0.007191159 0.06293276 0.022184119 0.003104791 -0.07421217
0.002540499 0.08282681 -0.08134976 0.04121031 -0.062960155 0.07764615 0.04037358 0.069050476
0.037835404 -0.0019247159 0.04416284 -0.074552335 -0.046886463 0.08572419 0.0014024526 0.03329946
-0.027816497 -0.037251715 0.045627534 0.08362761 0.047399938 0.08198425 0.06500243 -0.08120036
-0.031101678 0.012709565 0.0070042238 0.0076459274 -0.0045942143 -0.08006091 0.0446783 0.070425585
0.085171714 -0.0100792125 0.0005412102 0.005310014 0.078953534 -0.062246665 0.011862762 -0.07919222
-0.00017342716 0.070143 -0.025221914 0.07971662 0.023400947 -0.05076287 0.005483106 -0.06280061
0.06998144 0.0821974 -0.064373605 -0.02072025 -0.0880385 -0.07259567 0.07489599 0.08033356
-0.059628326 0.058663175 0.044925824 -0.039536037 0.05775483 0.05340521 0.077461034 0.03633195
0.06334221 -0.020136222 0.05703263 -0.015405811 0.046538323 0.013361327 -0.03884535 0.0060735494
0.06088318 -0.07498635 0.019028291 0.06763251 0.056764573 -0.06357526 -0.015180677 0.0485304
0.01605741 -0.044328827 -0.00831572 -0.0010072216 0.029062524 0.046274483 -0.007213652 -0.0801237
-0.085025795 -0.022111364 0.003764093 0.073159754 -0.08693044 -0.024978608 0.027699307 -0.020525753
0.025562026 -0.041568637 0.08429529 -0.034644183 -0.06773442 0.02732011 -0.058560733 -0.06641438
0.0042237043 0.006469272 0.08380903 0.08332567 0.045955807 -0.024894856 0.043469056 -0.030475087
-0.09010631 0.07213931 -0.07680513 0.06570947 -0.09023587 -0.046743777 0.050657317 -0.047004037
-0.08735977 -0.0826755 -0.027216978 0.062011138 -0.026930057 0.08371031 0.02425249 0.03473498
0.06738564 -0.066522814 -0.037068903 -0.009675622 0.042474568 -0.0021357015 0.021279536 0.04542312
-0.0650906 0.017606683 -0.028455243 -0.074497074 -0.015276864 -0.061301544 0.06520377 -0.028551862
-0.06453452 -0.027224839 -0.0056206062 0.055070147 -0.0008577481 0.00874377 0.0075145587 0.0015424341
-0.059992034 0.057348117 -0.004328817 0.07559994 -0.0033568516 -0.081103876 0.048884943 0.021679655
0.031658545 0.0076950192 0.07285617 0.08536948 0.05808066 -0.054944936 0.03390746 0.0049988776
0.052894577 -0.05893515 -0.075953856 -0.03698634 0.05652477 0.017193444 -0.07755261 0.08242147
0.047095418 -0.04115967 -0.0019802004 -0.022210963 0.004557267 -0.048026133 0.07370514 0.04007767
-0.081552826 0.056388915 0.036316246 -0.08386143 -0.08004392 -0.011737898 0.09097347 0.018540539
00000000: 14e8 0d3d 20af 8abc 0450 533d a854 92bd
00000010: 428a 033d 44e0 81bc 7046 5c3d aaf6 893d
00000020: 14b3 913c fa5a 17bd b0ee 463d 90d0 58bc
00000030: c0e7 383d c0d2 243c ec57 cbbc 6055 aa3d
00000040: 70b1 6d3d 5894 4e3d f8c3 dabc 90de 0dbc
00000050: 94a6 69bd 0ed2 a73d 6c52 713d 18ca 293d
00000060: 1b93 0cbd 1295 b43d 842d 4cbd 2310 0dbd
00000070: 18e5 9fbd 8050 6bbd 8c9f 14bd faa8 073d
00000080: 54de 393d d007 3f3d 0831 8a3d 538f 0ebd
00000090: d8db 213c 209d 5abd d4f1 463d 0037 8fbd
000000a0: 40bf 9ebb 28a7 9e3c d2a8 863d 2c5e 41bd
000000b0: d456 883d 38cb 703d 6c39 873d 9851 a43d
000000c0: 80ba 6dbc 2030 9b3d f602 9bbd 781f af3d
000000d0: 651c 47bd e0f8 39bc 3c95 a43d 00dd 8bbd
000000e0: cc94 6f3d d2e9 a4bd eae0 67bd d0a3 ebbb
000000f0: e4e2 803d 78bb b53c c079 4b3b 8dfc 97bd
00000100: 807e 263b 1aa1 a93d b49a a6bd 24cc 283d
00000110: 41f1 80bd f204 9f3d c45e 253d 566a 8d3d
00000120: 4cf9 1a3d c046 fcba 18e4 343d e5ae 98bd
00000130: 050c 40bd 2a90 af3d 80d2 b73a 0465 083d
00000140: 6cdf e3bc 4195 18bd f0e3 3a3d f444 ab3d
00000150: 7026 423d 5ce7 a73d fe1f 853d 604c a6bd
00000160: f2c8 febc c83b 503c b083 e53b b08a fa3b
00000170: 108b 96bb f9f6 a3bd 9800 373d 4a3b 903d
00000180: 826e ae3d 4823 25bc 00e0 0d3a a0ff ad3b
00000190: 64b2 a13d 5cf6 7ebd 085c 423c 882f a2bd
000001a0: 00da 35b9 22a7 8f3d 309e cebc 7842 a33d
000001b0: 58b3 bf3c baec 4fbd a0ab b33b 9b9d 80bd
000001c0: 6e52 8f3d 1c57 a83d 4fd6 83bd 84bd a9bc
000001d0: 874d b4bd 0aad 94bd 1263 993d ec85 a43d
000001e0: d53c 74bd cc48 703d 2404 383d 8af0 21bd
000001f0: 5490 6c3d 6cbf 5a3d e4a3 9e3d d0d0 143d
00000200: 90b9 813d b8f4 a4bc 0c9b 693d a868 7cbc
00000210: f89e 3e3d 78e9 5a3c 4d1c 1fbd a004 c73b
00000220: a460 793d 7292 99bd 38e1 9b3c ea82 8a3d
00000230: f881 683d bf33 82bd 60b8 78bc d0c7 463d
00000240: d48a 833c 2592 35bd a83e 08bc c004 84ba
00000250: 8814 ee3c 508a 3d3d 8060 ecbb e517 a4bd
00000260: 0122 aebd e422 b5bc 00af 763b c8d4 953d
00000270: 9608 b2bd f09f ccbc a8e9 e23c a025 a8bc
00000280: 7467 d13c e043 2abd 02a3 ac3d 0fe7 0dbd
00000290: 58b8 8abd 6cce df3c 61dd 6fbd 4304 88bd
000002a0: 0067 8a3b 30fc d33b 12a4 ab3d a6a6 aa3d
000002b0: 283c 3c3d 4cf0 cbbc 9c0c 323d e4a6 f9bc
000002c0: a889 b8bd c6bd 933d 024c 9dbd b092 863d
000002d0: 95cd b8bd 6776 3fbd 0c7e 4f3d 4e87 40bd
000002e0: aee9 b2bd c651 a9bd 24f6 debc 64ff 7d3d
000002f0: 6c9c dcbc 5070 ab3d 28ad c63c 4446 0e3d
00000300: 7c01 8a3d 1d3d 88bd 90d5 17bd 8086 1ebc
00000310: d0f9 2d3d 20f7 0bbb 6c52 ae3c 980d 3a3d
00000320: 384e 85bd e43b 903c f81a e9bc ec91 98bd
00000330: d04b 7abc 5417 7bbd 8e89 853d 98e5 e9bc
00000340: ad2a 84bd a006 dfbc 102d b8bb 3c91 613d
00000350: 80da 60ba 0842 0f3c b03c f63b 802b ca3a
00000360: 35ba 75bd dce5 6a3d c0d8 8dbb 24d4 9a3d
00000370: a0fe 5bbb ca19 a6bd 943b 483d 8899 b13c
00000380: 64ac 013d 8026 fc3b 9e35 953d 32d6 ae3d
00000390: fce5 6d3d f10d 61bd 8ce2 0a3d a0cd a33b
000003a0: fca7 583d fc65 71bd b28d 9bbd fd7e 17bd
000003b0: 8486 673d 44d9 8c3c e7d3 9ebd 96cc a83d
000003c0: 20e7 403d 0b97 28bd 40c6 01bb c4f3 b5bc
000003d0: 2055 953b 0db7 44bd b8f2 963d 7c28 243d
000003e0: 2b05 a7bd 10f8 663d 58c0 143d 8bbf abbd
000003f0: 11ee a3bd 5050 40bc 4c50 ba3d 54e2 973c

fc3.bias f4 [10]
0.0037399754 -0.021144181 -0.06834857 -0.07315321 -0.01485756 0.067970864 0.08442994 0.0022492781
0.041384704 -0.04798847
00000000: 601a 753b 9036 adbc 56fa 8bbd 5ad1 95bd
00000010: 206d 73bc 4f34 8b3d 9be9 ac3d a068 133b
00000020: 0283 293d 8f8f 44bd

fc3.weight f4 [10, 84]
-0.06743889 0.033469655 0.012917116 -0.047079973 0.049545266 0.069111116 0.063736774 0.10448376
-0.01785969 0.036768965 -0.10410332 -0.04625351 0.069498084 -0.059692096 0.091815434 0.0033795983
0.024920307 0.09962157 0.09436173 0.0131070465 0.09836853 0.017138653 0.072092436 0.06932438
0.034237258 -0.05435737 0.009284772 0.106033735 -0.053661127 -0.10163981 0.0054928735 0.059075184
-0.06764968 0.07622934 0.016710497 -0.06007812 -0.023949705 -0.097918585 0.097313754 -0.026697487
0.104051195 -0.0674994 -0.07348189 -0.08272663 -0.040205374 -0.06332882 0.01217901 -0.016634643
0.0696624 0.0103183985 0.008960187 0.03201724 -0.012487255 -0.04498177 -0.039060436 0.0332947
-0.0879386 0.075661786 0.10280616 0.0498709 -0.008063942 0.10480108 0.09871074 0.10380671
-0.0023064166 0.058984376 -0.090656385 0.058585964 -0.026790604 -0.004368946 0.10017928 -0.070880726
-0.020128608 -0.102400415 -0.10054552 0.020063318 -0.024669245 -0.042975232 -0.05280203 -0.08711387
-0.00089904666 0.057328008 0.08602644 0.0076498315 0.08808824 0.022167958 0.05746735 -0.06623869
-0.024761006 0.012851968 0.038468726 0.07293288 -0.09816937 -0.09580364 0.07447659 -0.015372634
0.07876671 -0.052632134 -0.06940944 -0.047077175 -0.049861167 -0.084381536 -0.035689905 -0.07194641
0.031226732 -0.10675105 0.08778421 -0.056881912 -0.030456737 0.035487138 0.10084621 0.049992032
0.09718659 -0.028031342 -0.08477386 -0.074070774 -0.06662609 -0.044587716 -0.03166019 -0.028006762
0.043335102 -0.046646897 -0.07074045 -0.025366418 0.0742512 0.103573285 -0.092933975 0.10397313
-0.0321529 0.06000919 0.0011756942 -0.062825926 0.05287222 0.01646205 0.034054644 0.08994875
0.0048215687 0.0031621456 -0.09275602 -0.069205865 0.08318127 -0.052348766 0.025803573 0.034945376
0.049899004 -0.06473492 -0.016170524 -0.014914662 -0.09707897 -0.08392382 -0.08524917 -0.08011849
0.05704213 -0.04433512 -0.07225652 0.032910205 -0.049743168 -0.07052015 -0.052167233 0.0625963
0.06188286 0.05321295 -0.0023200735 0.022322245 0.034929864 -0.04770646 -0.036251016 0.043364666
-0.03965336 0.037849046 -0.0061477274 0.09992366 0.102052934 0.09202177 -0.04868539 0.08077376
0.03715285 0.063721694 -0.058723204 -0.09974565 -0.09183541 0.089387156 -0.01821255 -0.018886209
-0.086713865 0.07200893 -0.03438341 -0.0083915815 0.01632861 -0.076961994 0.10416319 -0.015477523
0.01971414 0.08134953 -0.08365048 -0.0931139 0.024083264 0.0940621 0.034526385 -0.01761628
0.023972087 -0.024032623 -0.022804186 -0.070433244 0.0690724 -0.035510987 -0.10674539 0.10303157
0.032651775 0.035798855 0.006784685 0.07251688 0.06248053 -0.0068654194 -0.088138394 0.069830485
0.031771906 0.09964345 0.030574687 -0.07459304 -0.03223663 -0.0067370683 -0.09000938 -0.0014782995
0.019328631 0.03056217 0.088376515 -0.019619793 0.05906164 0.0011079088 -0.07953354 -0.10504686
-0.037446827 0.0021014214 0.070649214 -0.04251221 -0.094770625 0.020026363 0.06517016 -0.049148
0.098735206 0.093642645 0.004686974 -0.008999534 -0.07257381 0.10010014 0.07831261 -0.062359437
0.08395102 -0.016747594 -0.022839643 -0.04053282 -0.026896916 0.09928971 -0.005188711 -0.08659542
00000000: 671d 8abd 7a17 093d 50a2 533c eed6 40bd
00000010: faef 4a3d 218a 8d3d 6d88 823d 95fb d53d
00000020: 7c4e 92bc 0e9b 163d 1f34 d5bd 5274 3dbd
00000030: 0355 8e3d b37f 74bd bb09 bc3d 407c 5d3b
00000040: ac25 cc3c 6506 cc3d b940 c13d f0be 563c
00000050: 7175 c93d 5c66 8c3c 33a5 933d f1f9 8d3d
00000060: 5e3c 0c3d d5a5 5ebd 281f 183c 3728 d93d
00000070: c5cb 5bbd 8828 d0bd 90fd b33b d2f8 713d
00000080: ea8b 8abd 211e 9c3d 74e4 883c 7a14 76bd
00000090: 2c32 c4bc 8a89 c8bd 6f4c c73d b0b4 dabc
000000a0: cb18 d53d 203d 8abd ac7d 96bd 946c a9bd
000000b0: 64ae 24bd 8ab2 81bd 788a 473c 6045 88bc
000000c0: 29ab 8e3d 800e 293c c0cd 123c 8224 033d
000000d0: 5897 4cbc ce3e 38bd d6fd 1fbd 0660 083d
000000e0: 2719 b4bd 91f4 9a3d 098c d23d 6e45 4c3d
000000f0: a01e 04bc f3a1 d63d db28 ca3d 9d98 d43d
00000100: 4027 17bb 9a99 713d 0eaa b9bd d6f7 6f3d
00000110: f877 dbbc 6029 8fbb cb2a cd3d ea29 91bd
00000120: c0e4 a4bc 4fb7 d1bd cfea cdbd d45b a43c
00000130: 2817 cabc cc06 30bd f146 58bd c268 b2bd
00000140: 00ae 6bba c6d0 6a3d a12e b03d 70ab fa3b
00000150: 9b67 b43d 9499 b53c e262 6b3d 26a8 87bd
00000160: 98d7 cabc 1091 523c 6291 1d3d d55d 953d
00000170: 060d c9bd b334 c4bd 2f87 983d 80dd 7bbc
00000180: 7150 a13d cb94 57bd 8926 8ebd ffd3 40bd
00000190: 393b 4cbd 3ad0 acbd 942f 12bd a458 93bd
000001a0: 34cf ff3c 4ba0 dabd 35c8 b33d 02fd 68bd
000001b0: 6880 f9bc f65a 113d 7588 ce3d 72c4 4c3d
000001c0: c309 c73d fca1 e5bc eb9d adbd 6bb2 97bd
000001d0: 4273 88bd 9ca1 36bd 1eae 01bd 706e e5bc
000001e0: 2680 313d d110 3fbd 5ee0 90bd 3ccd cfbc
000001f0: 0311 983d 3b1e d43d 2b54 bebd ddef d43d
00000200: c2b2 03bd 32cc 753d c019 9a3a e1aa 80bd
00000210: 8a90 583d 6cdb 863c e27c 0b3d 0d37 b83d
00000220: 40fe 9d3b 003c 4f3b def6 bdbd cebb 8dbd
00000230: f15a aa3d a96b 56bd 0462 d33c e222 0f3d
00000240: e662 4c3d be93 84bd 0c78 84bc a05c 74bc
00000250: 57d1 c6bd 40e0 abbd 1e97 aebd 2a15 a4bd
00000260: 02a5 693d be98 35bd 3afb 93bd dacc 063d
00000270: 7ebf 4bbd de6c 90bd 4fad 55bd 7d32 803d
00000280: e278 7d3d d2f5 593d 600c 18bb 24dd b63c
00000290: 9e12 0f3d d967 43bd f27b 14bd 269f 313d
000002a0: 906b 22bd 9a07 1b3d e072 c9bb c7a4 cc3d
000002b0: 2101 d13d e975 bc3d 556a 47bd b76c a53d
000002c0: 962d 183d 8580 823d be87 70bd 7347 ccbd
000002d0: 3414 bcbd 9d10 b73d 7c32 95bc 40b7 9abc
000002e0: 0a97 b1bd 6b79 933d 9ed5 0cbd d87c 09bc
000002f0: 94c3 853c 409e 9dbd 8353 d53d 7095 7dbc
00000300: 8c7f a13c 959a a63d f150 abbd 80b2 bebd
00000310: 444a c53c a1a3 c03d 8a6b 0d3d 0450 90bc
00000320: 1c61 c43c 10e0 c4bc d8cf babc 4e3f 90bd
00000330: d575 8d3d f873 11bd 549d dabd 3702 d33d
00000340: debd 053d d2a1 123d 1052 de3b bb83 943d
00000350: 96eb 7f3d 50f7 e0bb e781 b4bd 4903 8f3d
00000360: 4223 023d dd11 cc3d c477 fa3c 3cc4 98bd
00000370: 8e0a 04bd a0c2 dcbb d656 b8bd 80c3 c1ba
00000380: 1457 9e3c 845d fa3c bffe b43d b0b9 a0bc
00000390: 9eea 713d 4037 913a 7be2 a2bd cf22 d7bd
000003a0: d861 19bd 00b8 093b 89b0 903d 4821 2ebd
000003b0: 1a17 c2bd 540e a43c ef77 853d 6a4f 49bd
000003c0: af35 ca3d b7c7 bf3d 3095 993b c872 13bc
000003d0: 94a1 94bd 4d01 cd3d 5d62 a03d 9c6c 7fbd
000003e0: 83ee ab3d 4032 89bc 341a bbbc be05 26bd
000003f0: ec56 dcbc 6758 cb3d 1006 aabb f158 b1bd
